…
data_path_overwrite: /var/tmp/jobfs/data/ntu_CS-flowpose_D3_aligned.npz
verbose: True
### Arguments loaded
	Output device: cuda:0
	Model total number of params: 488584
	Loading weights from ./results/stgcn2/ntu/CS/train/stgcn2_ntu_CS_cnn_D3.pt
	Total number of weights removed: 0
	Pretrained model loaded
### Model created
	Loaded data using mmap mode
	Assigned self.data to unique split (test)
	Using memory-mapped data - skipping NaN filtering to preserve memory efficiency
	Finished loading data!
test feeder length: 16487
### Dataloaders created
Eval network inputs:

Model: TEST_MODEL(
  (data_bn): BatchNorm1d(2650, eps=1e-05, momentum=0.1, affine=True, track_running_stats=True)
  (gcn): ModuleList(
    (0): Flow_conv(
      (conv): Sequential(
        (0): Conv2d(2, 16, kernel_size=(3, 3), stride=(1, 1))
        (1): ReLU()
        (2): Conv2d(16, 32, kernel_size=(3, 3), stride=(1, 1))
        (3): ReLU()
        (4): AdaptiveAvgPool2d(output_size=(1, 1))
      )
      (fc): Linear(in_features=32, out_features=61, bias=True)
    )
    (1-3): 3 x STGCNBlock(
      (gcn): unit_gcn(
        (bn): BatchNorm2d(64, eps=1e-05, momentum=0.1, affine=True, track_running_stats=True)
        (act): ReLU(inplace=True)
        (conv): Conv2d(64, 192, kernel_size=(1, 1), stride=(1, 1))
      )
      (tcn): unit_tcn(
        (conv): Conv2d(64, 64, kernel_size=(9, 1), stride=(1, 1), padding=(4, 0))
        (bn): BatchNorm2d(64, eps=1e-05, momentum=0.1, affine=True, track_running_stats=True)
        (drop): Dropout(p=0, inplace=True)
      )
      (relu): ReLU()
    )
    (4): STGCNBlock(
      (gcn): unit_gcn(
        (bn): BatchNorm2d(64, eps=1e-05, momentum=0.1, affine=True, track_running_stats=True)
        (act): ReLU(inplace=True)
        (conv): Conv2d(64, 192, kernel_size=(1, 1), stride=(1, 1))
      )
      (tcn): unit_tcn(
        (conv): Conv2d(64, 64, kernel_size=(9, 1), stride=(2, 1), padding=(4, 0))
        (bn): BatchNorm2d(64, eps=1e-05, momentum=0.1, affine=True, track_running_stats=True)
        (drop): Dropout(p=0, inplace=True)
      )
      (relu): ReLU()
      (residual): unit_tcn(
        (conv): Conv2d(64, 64, kernel_size=(1, 1), stride=(2, 1))
        (bn): BatchNorm2d(64, eps=1e-05, momentum=0.1, affine=True, track_running_stats=True)
        (drop): Dropout(p=0, inplace=True)
      )
    )
    (5-6): 2 x STGCNBlock(
      (gcn): unit_gcn(
        (bn): BatchNorm2d(64, eps=1e-05, momentum=0.1, affine=True, track_running_stats=True)
        (act): ReLU(inplace=True)
        (conv): Conv2d(64, 192, kernel_size=(1, 1), stride=(1, 1))
      )
      (tcn): unit_tcn(
        (conv): Conv2d(64, 64, kernel_size=(9, 1), stride=(1, 1), padding=(4, 0))
        (bn): BatchNorm2d(64, eps=1e-05, momentum=0.1, affine=True, track_running_stats=True)
        (drop): Dropout(p=0, inplace=True)
      )
      (relu): ReLU()
    )
    (7): STGCNBlock(
      (gcn): unit_gcn(
        (bn): BatchNorm2d(64, eps=1e-05, momentum=0.1, affine=True, track_running_stats=True)
        (act): ReLU(inplace=True)
        (conv): Conv2d(64, 192, kernel_size=(1, 1), stride=(1, 1))
      )
      (tcn): unit_tcn(
        (conv): Conv2d(64, 64, kernel_size=(9, 1), stride=(2, 1), padding=(4, 0))
        (bn): BatchNorm2d(64, eps=1e-05, momentum=0.1, affine=True, track_running_stats=True)
        (drop): Dropout(p=0, inplace=True)
      )
      (relu): ReLU()
      (residual): unit_tcn(
        (conv): Conv2d(64, 64, kernel_size=(1, 1), stride=(2, 1))
        (bn): BatchNorm2d(64, eps=1e-05, momentum=0.1, affine=True, track_running_stats=True)
        (drop): Dropout(p=0, inplace=True)
      )
    )
    (8-9): 2 x STGCNBlock(
      (gcn): unit_gcn(
        (bn): BatchNorm2d(64, eps=1e-05, momentum=0.1, affine=True, track_running_stats=True)
        (act): ReLU(inplace=True)
        (conv): Conv2d(64, 192, kernel_size=(1, 1), stride=(1, 1))
      )
      (tcn): unit_tcn(
        (conv): Conv2d(64, 64, kernel_size=(9, 1), stride=(1, 1), padding=(4, 0))
        (bn): BatchNorm2d(64, eps=1e-05, momentum=0.1, affine=True, track_running_stats=True)
        (drop): Dropout(p=0, inplace=True)
      )
      (relu): ReLU()
    )
  )
  (head): GCNHead(
    (loss_cls): CrossEntropyLoss()
    (fc_cls): Linear(in_features=64, out_features=60, bias=True)
  )
)

loss_funcs: {'cls_loss': CrossEntropyLoss()}

Test loader: <torch.utils.data.dataloader.DataLoader object at 0x1506b45de130>

Checkpoint file: ./results/stgcn2/ntu/CS/train/stgcn2_ntu_CS_cnn_D3.pt

Score funcs: ['ACC', 'cls_loss']

Device: cuda:0
	Tracking:
		epoch
		test_time
		loss
		lr
		truth
		pred
		ACC
		cls_loss
Results for ACC: [[tensor(0.8933, device='cuda:0')]]
…
